…
mbed_dim=72, hidden_dim=72, ff_hidden_dim=144, n_layers=4, n_heads=4, seq_len=120, prob_drop_hidden=0.4, p_drop_attn=0.4, embed_norm=True, fix_bert=False), save_dir='./saved/pretrain/spanmasking@40.0/uci20_120-embed_dim72-lr1e-04/', seed=2022, train_cfg=SCSensePretrainConfig(batch_size=256, n_epochs=3200, lr=0.0001, saving_epoch=300, early_stopping_epoch=0, testing_epoch=1, training_rate=0.8, vali_rate=0.1, label_index=0))
2022-07-31 11:07:56,254 - root - INFO - Train Size: 1670, Vali Size: 208
2022-07-31 11:07:58,590 - root - INFO - BERT4CL(
  (bert): BERT(
    (embed): Embeddings(
      (lin): Linear(in_features=6, out_features=72, bias=True)
      (pos_embed): Embedding(120, 72)
      (norm): LayerNorm()
    )
    (attn): MultiHeadedSelfAttention(
      (proj_q): Linear(in_features=72, out_features=72, bias=True)
      (proj_k): Linear(in_features=72, out_features=72, bias=True)
      (proj_v): Linear(in_features=72, out_features=72, bias=True)
      (drop): Dropout(p=0.4, inplace=False)
    )
    (proj): Linear(in_features=72, out_features=72, bias=True)
    (norm1): LayerNorm()
    (pwff): PositionWiseFeedForward(
      (fc1): Linear(in_features=72, out_features=144, bias=True)
      (fc2): Linear(in_features=144, out_features=72, bias=True)
    )
    (norm2): LayerNorm()
    (drop): Dropout(p=0.4, inplace=False)
  )
  (output_layer): ProjectHead(
    (first_layer): Linear(in_features=72, out_features=144, bias=False)
    (norm_layer): LayerNorm((144,), eps=1e-05, elementwise_affine=True)
    (final_layer): Linear(in_features=144, out_features=72, bias=True)
  )
  (pretrain_criterion): MSELoss()
  (train_criterion): CrossEntropyLoss()
)
2022-07-31 11:07:58,591 - root - INFO - Adam (
Parameter Group 0
    amsgrad: False
    betas: (0.9, 0.999)
    capturable: False
    eps: 1e-08
    foreach: None
    lr: 0.0001
    maximize: False
    weight_decay: 0
)
2022-07-31 11:08:01,638 - root - INFO - Evaluation: Epoch 0001 | Time 3.0s | Iter Mean Loss 5.5526 | Test Loss 4.8998
…
