…
f_hidden_dim=144, n_layers=4, n_heads=4, seq_len=120, prob_drop_hidden=0.4, p_drop_attn=0.4, embed_norm=True, fix_bert=False), pretrained_model_path='saved/pretrain/spanmasking@40.0/uci20_120-embed_dim72-lr1e-04/model_epoch3050.pth', save_dir='./saved/embedding/spanmasking@40.0/uci-embed_dim72-lr1e-04/', seed=2022, train_cfg=SCSensePretrainConfig(batch_size=256, n_epochs=3200, lr=0.0001, saving_epoch=300, early_stopping_epoch=0, testing_epoch=1, training_rate=0.8, vali_rate=0.1, label_index=0))
2022-07-31 13:13:30,441 - root - INFO - BERT4CL(
  (bert): BERT(
    (embed): Embeddings(
      (lin): Linear(in_features=6, out_features=72, bias=True)
      (pos_embed): Embedding(120, 72)
      (norm): LayerNorm()
    )
    (attn): MultiHeadedSelfAttention(
      (proj_q): Linear(in_features=72, out_features=72, bias=True)
      (proj_k): Linear(in_features=72, out_features=72, bias=True)
      (proj_v): Linear(in_features=72, out_features=72, bias=True)
      (drop): Dropout(p=0.4, inplace=False)
    )
    (proj): Linear(in_features=72, out_features=72, bias=True)
    (norm1): LayerNorm()
    (pwff): PositionWiseFeedForward(
      (fc1): Linear(in_features=72, out_features=144, bias=True)
      (fc2): Linear(in_features=144, out_features=72, bias=True)
    )
    (norm2): LayerNorm()
    (drop): Dropout(p=0.4, inplace=False)
  )
  (pretrain_criterion): MSELoss()
  (train_criterion): CrossEntropyLoss()
)
2022-07-31 13:13:30,444 - root - INFO - BERT4CL(
  (bert): BERT(
    (embed): Embeddings(
      (lin): Linear(in_features=6, out_features=72, bias=True)
      (pos_embed): Embedding(120, 72)
      (norm): LayerNorm()
    )
    (attn): MultiHeadedSelfAttention(
      (proj_q): Linear(in_features=72, out_features=72, bias=True)
      (proj_k): Linear(in_features=72, out_features=72, bias=True)
      (proj_v): Linear(in_features=72, out_features=72, bias=True)
      (drop): Dropout(p=0.4, inplace=False)
    )
    (proj): Linear(in_features=72, out_features=72, bias=True)
    (norm1): LayerNorm()
    (pwff): PositionWiseFeedForward(
      (fc1): Linear(in_features=72, out_features=144, bias=True)
      (fc2): Linear(in_features=144, out_features=72, bias=True)
    )
    (norm2): LayerNorm()
    (drop): Dropout(p=0.4, inplace=False)
  )
  (pretrain_criterion): MSELoss()
  (train_criterion): CrossEntropyLoss()
)
2022-07-31 13:13:35,981 - matplotlib.pyplot - DEBUG - Loaded backend agg version unknown.
2022-07-31 13:13:35,986 - matplotlib.font_manager - DEBUG - findfont: Matching sans\-serif:style=normal:variant=normal:weight=normal:stretch=normal:size=10.0.
2022-07-31 13:13:35,987 - matplotlib.font_manager - DEBUG - findfont: score(FontEntry(fname='/home/hwx/miniconda3/envs/py112/lib/python3.8/site-packages/matplotlib/mpl-data/fonts/ttf/cmsy10.ttf', name='cmsy10', style='normal', variant='normal', weight=400, stretch='normal', size='scalable')) = 10.05
…
